model/train.tflite (tflite, 7280 bytes, 6 tensors)

sequential/dense/BiasAdd/ReadVariableOp/resource f4 [20]
-0.87281996 0.0639732 0.72317034 0.04795072 1.471612 -2.1368494 1.586457 -2.4353259
-1.2486601 0.19498165 1.079825 -0.35024795 0.047494758 -2.0044725 -0.97625893 0.43910623
-1.6913855 -0.6691057 -1.7473177 0.005424249
00000000: 2171 5fbf 6204 833d b121 393f f967 443d
00000010: c85d bc3f 24c2 08c0 0611 cb3f 61dc 1bc0
00000020: 18d4 9fbf 45a9 473e b537 8a3f b353 b3be
00000030: dd89 423d 4749 00c0 1bec 79bf 88d2 e03e
00000040: 527f d8bf 834a 2bbf 1ba8 dfbf e6bd b13b

sequential/dense_1/BiasAdd/ReadVariableOp/resource f4 [10]
-1.3258655 2.2161102 -0.00444708 2.4389737 1.8908869 3.726276 1.0966862 0.5647216
2.1499534 0.45992097
00000000: f6b5 a9bf c0d4 0d40 d0b8 91bb 2518 1c40
00000010: 9508 f23f 4e7b 6e40 3760 8c3f 9891 103f
00000020: d698 0940 c37a eb3e

sequential/dense_2/BiasAdd/ReadVariableOp/resource f4 [25]
-0.66761076 1.0561022 -2.3244035 2.5720627 -0.17769285 -1.2033852 -0.79504085 -0.7169346
1.7781957 1.2975497 0.6758574 -1.8764982 0.1157595 -1.0005082 -0.3970717 0.16935337
0.049764767 1.1362467 0.5559027 1.0387247 1.714916 -2.808805 -0.08522409 0.51534504
-0.34890956
00000000: 8ae8 2abf 5b2e 873f 07c3 14c0 ad9c 2440
00000010: 1df5 35be 8708 9abf cc87 4bbf 0789 37bf
00000020: eb9b e33f 1c16 a63f fe04 2d3f 1831 f0bf
00000030: 5113 ed3d a710 80bf fb4c cbbe f86a 2d3e
00000040: 24d6 4b3d 8870 913f a44f 0e3f eef4 843f
00000050: 5e82 db3f 76c3 33c0 f889 aebd a7ed 033f
00000060: 46a4 b2be

sequential/dense/MatMul f4 [20, 42]
-0.024644136 -0.24250564 -0.042678874 0.14551434 -0.05282858 -0.025841167 0.038778137 -0.024340758
0.33412114 0.07193627 0.719614 0.015268106 0.8182362 0.0032052496 0.61499405 -0.03571035
0.5588756 -0.06844511 1.228474 0.00013312856 0.11621134 -0.0030446374 -0.5828113 -0.043190207
-0.6201642 -0.4595604 0.37168422 0.0048512323 0.077955835 -0.07850907 -0.6468542 -0.03846507
-1.0026298 -0.20151494 0.07419453 0.00056938524 -0.06014293 -0.17801392 -0.582549 -0.34514445
-0.91962856 -1.3278681 0.084977955 0.07586339 -0.31413886 1.3449633 -0.29864836 1.8839722
0.016407626 2.1241775 0.013059997 2.9588873 -0.5817661 0.40733665 -0.19700173 1.1141547
-0.10574645 2.5697384 -0.19882566 2.3194604 -0.33384606 0.18626712 0.043741763 1.3469853
0.06954715 0.15552564 0.14328004 -0.19400142 -0.47856784 0.25032303 0.17429487 0.82351613
0.21372755 0.4497192 0.23358743 0.82344556 0.04951307 -0.5461562 0.27920452 0.24933474
0.40776086 0.5341493 0.38622665 0.65882003 0.16352084 -0.11901972 0.07424442 0.62986785
-0.09678313 0.13532628 -0.22384857 0.08647854 -0.43107247 0.07439022 -0.20578554 0.044944596
-0.163935 0.035491187 -0.16250221 0.012677602 -0.1848688 -0.015142157 -0.9993962 0.049018957
-0.8143426 0.04065359 -0.42330167 0.08631006 -0.35530034 0.11124173 -5.6536465 0.042660404
-2.4945383 0.0447782 -1.1896796 0.015752252 -0.29606462 0.1228236 -0.4789154 0.04915756
-0.54287404 0.09533389 -0.5594326 0.12617278 -0.3610315 0.16246468 -0.21580577 -0.11949268
-0.6737504 1.0990969 -0.08721709 1.7205215 -0.12377842 1.8652632 -0.07043237 2.843341
-0.19503304 0.17429948 -0.16813393 0.8883113 -0.1515942 2.26066 -0.08616124 2.95477
-0.49952736 0.105449244 -0.034365524 0.87031657 0.016415084 0.23904431 -0.11388558 -0.046446495
-0.4327147 0.16612229 -0.02976869 0.74330837 0.2915269 0.82372314 -0.16612576 0.7582902
-0.036696166 -0.6977138 0.33998352 0.5192342 0.43076053 0.43742013 0.07415565 0.5306253
-0.010838032 -0.1394852 0.31990665 -0.9391251 0.48973525 -0.22055249 1.0078775 -0.17522886
1.0026445 -0.13209298 1.6618751 -0.05745211 1.7192653 -0.022510322 1.2765689 -0.030773614
1.1991822 -0.019653693 3.5893645 -0.04268586 0.8970669 0.009430342 -0.56964153 -0.04710663
-0.82673115 -0.051685072 0.9535691 0.01724686 -0.51975244 0.17880212 -1.2713021 0.35355917
-0.7219152 0.46616983 0.3141679 0.055727605 -0.017615579 0.18775105 0.11264778 0.4475522
0.80715865 0.5512693 -0.2319501 -0.014607877 0.10963307 0.75220585 0.15603736 0.018742958
0.44003567 -0.0072879205 0.63303494 0.081932515 -0.19772267 -0.043814376 -0.13663028 -0.064961925
-0.07093046 -0.07629457 0.02089618 -0.045817196 -0.15321457 -0.0809818 0.085331604 -0.076436885
0.03768987 -0.1828905 0.0007895436 -0.22921681 0.10862803 -0.055682182 0.23210871 -0.105163984
0.4537544 -2.0859344 0.58552617 -0.37591255 0.32560107 -0.02564113 0.31434286 -0.0068065515
0.38957772 0.032064945 0.4424062 0.046269547 0.18437734 -0.0029042065 0.3590364 0.006622749
00000000: 80e2 c9bc 6653 78be 0bd0 2ebd b601 153e
00000010: c862 58bd dbb0 d3bc d3d5 1e3d 4566 c7bc
00000020: ed11 ab3e 5353 933d a038 383f 1427 7a3c
00000030: ed77 513f 2a0f 523b 4070 1d3f 0445 12bd
00000040: 7912 0f3f f32c 8cbd a33e 9d3f 6d98 0b39
00000050: 3600 ee3d 8a88 47bb 1f33 15bf 37e8 30bd
00000060: 15c3 1ebf 804b ebbe 654d be3e 16f7 9e3b
00000070: 4fa7 9f3d 5dc9 a0bd 3d98 25bf 8d8d 1dbd
00000080: 2c56 80bf ef59 4ebe 4df3 973d cc42 153a
00000090: 6f58 76bd 4849 36be ee21 15bf c6b6 b0be
000000a0: c76c 6bbf 95f7 a9bf ec08 ae3d 445e 9b3d
000000b0: cfd6 a0be c227 ac3f 70e8 98be 0026 f13f
000000c0: 4969 863c 86f2 0740 99f9 553c 695e 3d40
000000d0: a0ee 14bf 6e8e d03e d2ba 49be 9f9c 8e3f
000000e0: 9891 d8bd 9876 2440 f498 4bbe 0a72 1440
000000f0: dfed aabe cfbc 3e3e 902a 333d 046a ac3f
00000100: bc6e 8e3d 1d42 1f3e 01b8 123e 4fa8 46be
00000110: d806 f5be 572a 803e 5b7a 323e f4d1 523f
00000120: 65db 5a3e 9841 e63e 8b31 6f3e 54cd 523f
00000130: 38ce 4a3d e5d0 0bbf e5f3 8e3e 9b51 7f3e
00000140: 08c6 d03e 02be 083f 80bf c53e 6ea8 283f
00000150: 0272 273e 9cc0 f3bd 750d 983d 053f 213f
00000160: 3c36 c6bd f992 0a3e 8f38 65be a91b b13d
00000170: 88b5 dcbe e659 983d 72b9 52be d317 383d
00000180: 94de 27be 355f 113d fb66 26be b7b5 4f3c
00000190: 3f4e 3dbe cf16 78bc 6ed8 7fbf 1ac8 483d
000001a0: c278 50bf 6184 263d ffba d8be 54c3 b03d
000001b0: ede9 b5be b4d2 e33d acea b4c0 adbc 2e3d
000001c0: 84a6 1fc0 5969 373d 6c47 98bf de0a 813c
000001d0: c895 97be f18a fb3d 6634 f5be 7059 493d
000001e0: cbf9 0abf 6a3e c33d fa36 0fbf 7033 013e
000001f0: 1fd9 b8be 245d 263e 30fc 5cbe 94b8 f4bd
00000200: e87a 2cbf 35af 8c3f e09e b2bd 0c3a dc3f
00000210: 8a7f fdbd f2c0 ee3f d93e 90bd 4df9 3540
00000220: beb6 47be 907b 323e 4d2b 2cbe 5f68 633f
00000230: 833b 1bbe a7ae 1040 4e75 b0bd f41a 3d40
00000240: 0dc2 ffbe c6f5 d73d ddc2 0cbd 11cd 5e3f
00000250: ed78 863c 08c8 743e d83c e9bd ae3e 3ebd
00000260: c88c ddbe f61b 2a3e 78dd f3bc 7549 3e3f
00000270: 0443 953e 85df 523f df1c 2abe 4e1f 423f
00000280: b84e 16bd 5f9d 32bf 5212 ae3e 88ec 043f
00000290: a58c dc3e 88f5 df3e ebde 973d 0fd7 073f
000002a0: 0092 31bc 35d5 0ebe ceca a33e 816a 70bf
000002b0: 94be fa3e 83d8 61be 2102 813f 326f 33be
000002c0: a856 803f 6243 07be 53b8 d43f e752 6bbd
000002d0: e310 dc3f 9167 b8bc 9c66 a33f f218 fcbc
000002e0: cd7e 993f c800 a1bc 26b8 6540 5ed7 2ebd
000002f0: 2da6 653f b981 1a3c 07d4 11bf e2f2 40bd
00000300: a7a4 53bf bab3 53bd 1b1d 743f 4949 8d3c
00000310: 7f0e 05bf e717 373e 07ba a2bf b505 b53e
00000320: 6fcf 38bf d0ad ee3e 9dda a03e a142 643d
00000330: 8c4e 90bc d041 403e e1b3 e63d 9025 e53e
00000340: f3a1 4e3f fc1f 0d3f 5484 6dbe e055 6fbc
00000350: 4e87 e03d 9090 403f 42c8 1f3e d58a 993c
00000360: 5b4c e13e 82cf eebb 940e 223f 3ccc a73d
00000370: d077 4abe b476 33bd cfe8 0bbe c20a 85bd
00000380: fd43 91bd 5440 9cbd 772e ab3c d0aa 3bbd
00000390: 48e4 1cbe c9d9 a5bd 56c2 ae3d f18a 9cbd
000003a0: b160 1a3d a647 3bbe 60f9 4e3a d0b7 6abe
000003b0: 5f78 de3d 0013 64bd e8ad 6d3e 3760 d7bd
000003c0: 7f52 e83e f37f 05c0 0be5 153f 9c77 c0be
000003d0: 2fb5 a63e 590d d2bc 8cf1 a03e 7e09 dfbb
000003e0: bb76 c73e 8856 033d 1183 e23e 2385 3d3d
000003f0: 6acd 3c3e 8054 3ebb 9ed3 b73e a503 d93b

sequential/dense_1/MatMul f4 [10, 20]
0.38593078 -1.4017884 0.13644063 -1.636474 0.89947313 0.10976799 1.5419371 0.63883036
0.030077292 -0.06969412 1.4733312 0.618832 -1.4339387 -0.08775297 0.08841483 0.17904484
-2.3547132 0.1190533 -0.17749152 0.27843186 0.15766418 -0.16244385 -4.6578918 -0.17455612
-0.50411755 0.15431787 -0.50191164 -0.050034303 -0.08749541 0.16548167 -0.63087964 0.06955072
-0.28305376 1.3409278 0.161798 -6.2623467 0.4320777 1.1820834 0.0060846405 -1.5605131
-0.10565548 4.0584636 0.90577996 4.1913033 0.92545533 -1.3859155 -2.7382703 0.25921452
0.2385441 0.41907328 -2.7849915 0.0011356716 4.0946593 -0.57122624 -0.053823605 1.1462169
-0.67568827 -0.0036356263 0.26166102 0.76732934 0.71627563 -0.024583254 -0.29081163 -0.0056159995
0.92836493 -0.60872066 0.3050898 0.4419351 0.6900723 0.7278731 0.2155362 -0.03582936
-0.14998434 -1.0173193 0.46616083 -0.3313199 0.3482954 -3.4579318 0.26924357 0.101167485
0.045090605 0.012607673 -0.9473352 0.035158582 0.83435297 2.872424 0.6188916 -0.01056508
-0.053496465 0.4133464 0.52766854 0.9630927 -0.07110954 -0.34699702 1.649647 -1.5114366
0.3037517 -0.06640001 0.14841577 0.17617503 0.031794187 -0.65273845 0.40324077 -0.71135634
-0.21374188 0.9690044 0.3116385 -0.2537404 0.86301756 -0.42549345 0.32222846 1.5747966
-0.7186325 2.6373339 0.037528973 0.544069 0.7522906 -0.08220121 -0.4818276 0.6476927
0.37834612 1.4690245 0.13048016 1.8599422 1.1562722 0.22994725 0.8834125 -3.0521343
0.53900236 0.2532045 0.64493173 0.9485938 1.5188775 -2.5324898 -0.8249775 0.122332655
-1.1168755 1.0710716 -0.024109052 0.20914242 0.87626255 1.2903848 0.49307072 1.5233456
0.6390553 0.20603214 -0.04348919 3.0831776 0.96935236 0.19677329 -0.10010052 0.20841536
1.1262115 1.1466917 -0.0092388475 0.6743972 3.7851224 -0.40984496 4.1756377 0.3960046
1.1249957 1.3405893 0.2825469 1.2832432 -2.8582985 1.1640657 -4.053651 0.67879856
1.0000468 -1.7887714 -2.2592692 0.8364637 1.4528044 -0.21177338 -1.3313655 0.45140523
-0.43777114 0.07517463 -0.40430963 0.32622 1.3468324 0.07167323 0.3816786 -0.2807972
-1.1457057 -0.036724176 0.15891692 0.28793585 2.1177835 0.17571135 0.15878525 0.09873376
0.14126286 -0.5469233 -0.10131194 0.43663907 0.04320652 0.055779397 -0.014460278 2.180596
00000000: b898 c53e cd6d b3bf 18b7 0b3e fb77 d1bf
00000010: df43 663f 0ace e03d 325e c53f 638a 233f
00000020: a764 f63c cabb 8ebd 1e96 bc3f c66b 1e3f
00000030: 4e8b b7bf d4b7 b3bd d612 b53d 8857 373e
00000040: 9fb3 16c0 37d2 f33d 56c0 35be 9f8e 8e3e
00000050: b872 213e ae57 26be 730d 95c0 d7be 32be
00000060: d90d 01bf 8105 1e3e 487d 00bf c5f0 4cbd
00000070: cb30 b3bd 0774 293e 5481 21bf 9c70 8e3d
00000080: 6cec 90be 86a3 ab3f 60ae 253e 2565 c8c0
00000090: 4a39 dd3e 824e 973f aa61 c73b e5be c7bf
000000a0: e661 d8bd efde 8140 32e1 673f 281f 8640
000000b0: a4ea 6c3f ae65 b1bf d23f 2fc0 c4b7 843e
000000c0: e844 743e c690 d63e 4d3d 32c0 d1da 943a
000000d0: 7307 8340 e23b 12bf 2476 5cbd 3cb7 923f
000000e0: e8f9 2cbf b043 6ebb 6ff8 853e b26f 443f
000000f0: d75d 373f d262 c9bc 43e5 94be 6b06 b8bb
00000100: 53a9 6d3f 1ed5 1bbf bb34 9c3e 5145 e23e
00000110: 94a8 303f e455 3a3f 86b5 5c3e cfc1 12bd
00000120: 7f95 19be 8537 82bf a2ac ee3e c3a2 a9be
00000130: c653 b23e c14e 5dc0 4bda 893e e630 cf3d
00000140: edb0 383d 6a90 4e3c 8f84 72bf 7202 103d
00000150: 2898 553f cbd5 3740 ae6f 1e3f 2819 2dbc
00000160: 1c1f 5bbd 24a2 d33e 4915 073f 3e8d 763f
00000170: e1a1 91bd 98a9 b1be a227 d33f c176 c1bf
00000180: 5885 9b3e bafc 87bd 4efa 173e 3a67 343e
00000190: 9f3a 023d de19 27bf 9375 ce3e 731b 36bf
000001a0: 27df 5abe ac10 783f 158f 9f3e 43ea 81be
000001b0: b8ee 5c3f 47da d9be 21fb a43e ef92 c93f
000001c0: 4df8 37bf 14ca 2840 fbb7 193d 1b48 0b3f
000001d0: 1e96 403f 1c59 a8bd 1bb2 f6be 30cf 253f
000001e0: 95b6 c13e ff08 bc3f 979c 053e 9612 ee3f
000001f0: ba00 943f 4b77 6b3e 5227 623f 2b56 43c0
00000200: 0ffc 093f 05a4 813e 3f1a 253f 0bd7 723f
00000210: 946a c23f 5014 22c0 ba31 53bf 8b89 fa3d
00000220: c7f5 8ebf e018 893f 5980 c5bc 6e29 563e
00000230: be52 603f 542b a53f c473 fc3e fdfc c23f
00000240: 2199 233f 17fa 523e b921 32bd c852 4540
00000250: 7a27 783f f07e 493e 8001 cdbd d66a 553e
00000260: b327 903f cbc6 923f 895e 17bc 4ba5 2c3f
00000270: 723f 7240 33d7 d1be d39e 8540 1dc1 ca3e
00000280: dcff 8f3f 6e98 ab3f fda9 903e 5041 a43f
00000290: 5dee 36c0 1b00 953f 82b7 81c0 bec5 2d3f
000002a0: 8901 803f 76f6 e4bf de97 10c0 7c22 563f
000002b0: 7ff5 b93f 1fdb 58be 2f6a aabf 961e e73e
000002c0: 8a23 e0be 28f5 993d ac01 cfbe 4f06 a73e
000002d0: 0165 ac3f 6ac9 923d 616b c33e a7c4 8fbe
000002e0: 7ca6 92bf 176c 16bd 1ebb 223e 546c 933e
000002f0: c489 0740 aded 333e 9a98 223e ed34 ca3d
00000300: 36a7 103e 2a03 0cbf a27c cfbd 288f df3e
00000310: 52f9 303d f078 643d cdea 6cbc e38e 0b40

sequential/dense_2/MatMul f4 [25, 10]
-1.6019763 -1.0856997 -0.20996186 -0.17552415 -0.9374203 0.82740486 -0.8437247 0.6519381
-0.15311836 -0.9346007 -0.61887467 -1.4398122 -0.6423243 -0.27842072 0.006822786 -0.08513047
-0.5448913 -0.33723918 1.1364908 0.24106817 -0.060296822 -0.27078363 0.020688817 -0.8524908
-0.3697173 -0.47015426 0.44001633 0.5501515 0.48768276 0.3840467 -5.507307 -2.502049
-1.2414597 1.0765818 -1.5519667 0.90328854 0.313157 -2.0446694 0.8780256 -1.2013507
-2.2080483 -0.70374566 -0.8418824 -1.1288383 -0.2999914 0.52011025 -0.9097151 0.44258308
0.8973284 0.035580892 -0.91037875 0.37118894 -1.7094214 -1.3834058 -0.3219098 0.7563108
-1.2105521 -1.460129 0.8921846 0.7363099 0.70275277 0.80528474 0.19922495 -0.08981801
0.49189192 -1.7201859 0.2125836 -0.21158533 0.22060023 0.5962426 0.7126888 0.6131338
0.35908628 0.23413494 -0.16992684 -1.7097843 0.6355711 -0.8810567 0.19708295 0.12603398
-2.8660398 -0.78529185 0.055615563 0.14640114 -1.8169148 0.06950751 -1.5181944 -0.42497903
1.2215319 0.16430497 -0.18883428 -1.6345373 -0.5991954 0.45345625 -0.29831377 -0.8500277
0.8117497 0.27822828 -0.48641837 0.43932694 -2.4718504 -0.8662017 0.96842873 -0.84184235
-1.1075774 1.3727189 -0.8993805 -1.5262105 0.7378643 -1.7527769 -0.9300007 -1.9487821
-0.82235324 0.63517284 0.64103115 0.15973885 -0.71755236 0.45351115 -0.55961025 0.2475295
-1.2916327 -2.2696521 -0.07597612 1.156653 0.20051606 -0.058505937 -0.6955833 0.38676265
-0.43520197 -0.21254672 -0.38416666 -0.44519293 0.58022547 0.15947442 -0.72031283 -0.82737565
0.31437346 0.41487947 0.15177953 0.37271684 -0.3326162 -1.8981113 -0.32249755 -1.0861139
-0.8157121 -1.9295149 -0.22243525 -0.29194286 -1.0093317 -0.30988562 -1.9012624 -0.91171736
-2.6798983 0.6529185 -0.5715359 0.46081832 1.6579629 0.20026475 -1.4950248 -1.1167282
-0.7523354 0.72766256 0.8044026 -1.1107622 0.50655866 -0.07209633 -1.1054181 0.4332739
-0.8695192 0.42264345 -2.6147249 0.5540005 -0.002018815 0.2092155 0.029068522 0.01166715
-1.2437826 0.37423202 -0.870348 -2.0662844 0.14954412 -0.20869558 -0.8202065 -0.13092855
0.07345949 0.41639188 0.07114584 0.41988567 -1.3952602 -1.6117241 -0.66044086 -0.5279071
-0.3066894 0.29117107 0.5508676 0.40728557 0.8921113 -2.816493 -1.235808 -2.153998
-0.94172615 -0.8849115 -1.2441901 -0.9302333 0.6526332 0.9729266 -0.09558728 -3.027487
-1.278991 0.66272193 0.21762802 0.5829523 0.207927 -0.11263963 0.6755201 -0.27881712
0.36760345 -0.47347808 -0.7902197 -0.6191662 0.9270591 1.0502142 -1.71716 -0.11080236
-1.1886984 0.080071025 -0.087310754 0.1823272 -0.30230364 -0.7912598 -0.21001685 -0.80413973
0.34041777 0.25662926 -1.0512168 -0.90231556 0.31211254 0.4157981 -0.062137626 0.48715344
-0.07486042 -1.9407341 0.019558916 -1.0292536 -0.7378469 -2.060704 -0.72726715 -0.5270907
-0.6290253 -0.2380254
00000000: 8f0d cdbf 35f8 8abf 3e00 57be 9abc 33be
00000010: c7fa 6fbf ced0 533f 58fe 57bf 6ae5 263f
00000020: 0fcb 1cbe fe41 6fbf 926e 1ebf c44b b8bf
00000030: 5e6f 24bf 298d 8ebe ad91 df3b e258 aebd
00000040: ff7d 0bbf 9daa acbe 8878 913f 93da 763e
00000050: cdf9 76bd 27a4 8abe 987b a93c d63c 5abf
00000060: 964b bdbe 0fb8 f0be d249 e13e bbd6 0c3f
00000070: 8eb1 f93e c5a1 c43e dc3b b0c0 9221 20c0
00000080: 27e8 9ebf 6fcd 893f d8a6 c6bf eb3d 673f
00000090: 1d56 a03e dddb 02c0 49c6 603f dcc5 99bf
000000a0: aa50 0dc0 ad28 34bf 9b85 57bf c67d 90bf
000000b0: 7998 99be f225 053f 17e3 68bf 409a e23e
000000c0: 50b7 653f 45bd 113d 950e 69bf 7a0c be3e
000000d0: 52ce dabf 7113 b1bf 5cd1 a4be 969d 413f
000000e0: 5ff3 9abf 82e5 babf 3666 643f ce7e 3c3f
000000f0: 9be7 333f 2427 4e3f a001 4c3e 81f2 b7bd
00000100: 42d9 fb3e 0d2f dcbf 84af 593e d3a9 58be
00000110: 07e5 613e 5ba3 183f c672 363f 56f6 1c3f
00000120: 28da b73e 12c1 6f3e 4d01 2ebe 36da dabf
00000130: cab4 223f ef8c 61bf 1dd0 493e 0d0f 013e
00000140: 326d 37c0 e308 49bf 25cd 633d 2eea 153e
00000150: aa90 e8bf f459 8e3d 3254 c2bf da96 d9be
00000160: 285b 9c3f 903f 283e c65d 41be 8538 d1bf
00000170: df64 19bf 6b2b e83e 95bc 98be 6a9b 59bf
00000180: d4ce 4f3f f073 8e3e d40b f9be 76ef e03e
00000190: cc32 1ec0 65bf 5dbf f2ea 773f fb82 57bf
000001a0: 19c5 8dbf 41b5 af3f cd3d 66bf de5a c3bf
000001b0: ade4 3c3f fe5a e0bf 8714 6ebf b171 f9bf
000001c0: be85 52bf b09a 223f 9e1a 243f 9592 233e
000001d0: 83b1 37bf 9d32 e83e 9e42 0fbf 6078 7d3e
000001e0: 3854 a5bf fb41 11c0 5e99 9bbd 350d 943f
000001f0: 1554 4d3e eca3 6fbd bf11 32bf c105 c63e
00000200: cbd2 debe d9a5 59be 7eb1 c4be 54f0 e3be
00000210: a889 143f 434d 233e 6c66 38bf e4ce 53bf
00000220: 8ff5 a03e 156b d43e 186c 1b3e bed4 be3e
00000230: ac4c aabe 50f5 f2bf 661e a5be c805 8bbf
00000240: 82d2 50bf 58fa f6bf 11c6 63be 8979 95be
00000250: c831 81bf 54a9 9ebe 915c f3bf 4f66 69bf
00000260: 7483 2bc0 ab25 273f 2d50 12bf 61f0 eb3e
00000270: 2138 d43f 3412 4d3e f95c bfbf f3f0 8ebf
00000280: 0e99 40bf 1848 3a3f 54ed 4d3f 752d 8ebf
00000290: d4ad 013f 3ea7 93bd 577e 8dbf 14d6 dd3e
000002a0: cf98 5ebf b964 d83e a757 27c0 fad2 0d3f
000002b0: 184e 04bb 973c 563e 1c21 ee3c 9327 3f3c
000002c0: 4534 9fbf 579b bf3e 20cf 5ebf 013e 04c0
000002d0: 1822 193e 4bb4 55be 0ef9 51bf 2212 06be
000002e0: ee71 963d 5131 d53e e9b4 913d 41fb d63e
000002f0: e397 b2bf fa4c cebf a712 29bf eb24 07bf
00000300: 6506 9dbe 6014 953e a905 0d3f bc87 d03e
00000310: 6861 643f 6c41 34c0 f52e 9ebf 1adb 09c0
00000320: f714 71bf 8f89 62bf 9f41 9fbf c523 6ebf
00000330: f812 273f b811 793f 44c3 c3bd 59c2 41c0
00000340: fab5 a3bf 25a8 293f e1d9 5e3e 5d3c 153f
00000350: d1ea 543e 9baf e6bd e3ee 2c3f 1ec1 8ebe
00000360: 8536 bc3e b86b f2be d74b 4abf ad81 1ebf
00000370: bf53 6d3f 6b6d 863f e6cb dbbf 59ec e2bd
00000380: 4527 98bf 47fc a33d fbcf b2bd fbb3 3a3e
00000390: 8bc7 9abe 0190 4abf a80e 57be 1adc 4dbf
000003a0: 3d4b ae3e e964 833e 468e 86bf 27fe 66bf
000003b0: 37cd 9f3e 7de3 d43e 0684 7ebd 2d6c f93e
000003c0: 6b50 99bd fa69 f8bf 053a a03c 95be 83bf
000003d0: 89e3 3cbf 93e2 03c0 2e2e 3abf 6bef 06bf
000003e0: cd07 21bf eebc 73be
